data.pth (torch, 6570 bytes, 6 tensors)

l1.weight f4 [8, 75]
00000000: 14ab c1bd 9c4f d93e 0da6 9ebe 8971 c8bd
00000010: 348c cc3d 1395 ea3d f7fa babd dbe7 163f
00000020: 9165 36be 34ad 983e 4dd8 fe3e 8c95 fa3e
00000030: 9fb4 9d3e 1ceb 45be 3129 f3be 2dba db3e
00000040: 155c 0d3f 0ead 8f3e 5c63 fa3e b5d4 59be
00000050: 7356 1fbe 591a f53e c6eb 223f b7fd df3e
00000060: 25ff e6bd 7d27 0dbe dfa6 10bf 7080 a9be
00000070: 6757 a73e c775 a9be 5f78 a9be 4b17 97be
00000080: 1c5a 073f 4cd6 de3e 6a6d 06bf 6a35 5a3f
00000090: 1059 e7be 160d 463f 624a 663f b07d a83e
000000a0: 1650 95be 4bf2 4abe 962e eebe 666d 2d3f
000000b0: 3794 dc3e c772 593f 68ec b4be c3d7 fa3e
000000c0: 277d 47bd 7c6f 213f 9baa 043f 19c8 163f
000000d0: e060 7cbe d5de 513f ffe1 b9be 3b7e 06be
000000e0: be2f 183f 6d70 bdbd c916 cebe da53 d0bd
000000f0: 5530 2abf 651c 133f 3070 88bd e69b d3bc
00000100: bc0b 8bbe 5768 243f 4458 b3be 4fae a03e
00000110: 718b 97be 4c11 ea3e 01cd 1ebf f477 223e
00000120: 260b d3bb ea3e 1bbe 4368 3bbf d809 ed3e
00000130: 636e a33e bc4b f13d 0ebc 0f3f 3f51 4f3f
00000140: ea01 aa3d b94c a2bd 3744 9cbe 19d4 abbe
00000150: 636e ff3e 7761 2abf 5d90 d8bd 3c6e 4dbe
00000160: 0363 b03e d667 df3e c04b 77be 6837 bbbe
00000170: b224 003f 2862 21bd e791 a63e 7744 123f
00000180: 1b12 f1be 6de3 97be 9bb9 cebe 8678 b4bd
00000190: cf67 ec3e f60e 9ebe a5a7 073f 3500 35be
000001a0: 97dc 063f 731a 043f b261 a8bd a73a 48be
000001b0: d722 933e c08e 7dbe b602 aebe 8b27 d7bd
000001c0: 429e da3e c3e2 12bf 4bb0 6d3e eea8 0abc
000001d0: cf70 0bbe 77ce ebbe 6a9e 16be f258 53be
000001e0: 9e4d 223e f3af c53e 3844 2cbf eb49 01bf
000001f0: 4834 f6be 00f3 3b3f 5ab7 dbbe 339f 06bf
00000200: da7a 15bf 8fa1 d23c f91d c43e 3406 8abe
00000210: 54e9 d73e fa64 1b3f 3fb0 8bbe 96ce 4ebf
00000220: c757 02be b35a 0b3f 5cd1 663e 7ee5 03be
00000230: fc4e 573e ac3a a73e 9f2d aabe 0193 823e
00000240: 9788 143e a5e7 86be a8a0 643e 7368 52be
00000250: 0d29 62be 7e1b c23e e82a 003f 389b 8c3d
00000260: a1c5 babe 683f b33e f4c2 d43e 0c47 0ebf
00000270: 8f14 0d3f d055 9f3c 78b7 613e d4d8 ba3e
00000280: 94b8 ccbe ce51 1c3e db76 c6be 768a 22be
00000290: 545a 043f 1dfb 9e3e 56a6 013f 6bde 063f
000002a0: 7992 1abe 86ef 07bf 3029 2f3e 54ae d5be
000002b0: 05bc d33e f1e1 73be dde4 c93e ed55 03be
000002c0: 3746 2a3f 184e 91be 4122 afbe 5570 92be
000002d0: f77d 92be 3d1f f53e c66c 9d3e 28a6 1c3e
000002e0: 18ef 143f dcb0 86bd aea5 183f 5463 f43e
000002f0: 49a9 21bf c805 1b3f 9124 c43e 84f9 e63c
00000300: 3e32 293f 8adb d83e c30e 123f c33e 0a3d
00000310: 4758 0bbf c159 06be c609 4c3e a083 fe3e
00000320: fa2c 3b3f 1014 b43e 719a 0c3e 8a75 12bf
00000330: 5b0a d83e c098 0fbf 1825 e8bc eb35 2e3f
00000340: 46a8 b0be e731 2b3e 9f64 ff3e a222 ecbd
00000350: abcd 0d3f 0ec6 933e eff8 103f bdca 173f
00000360: 4925 97be 40ed a5be 4e88 c73d 37e9 63bc
00000370: 9ae4 123f 6489 c23e 4881 533e 45fc b43d
00000380: 3415 4dbd 81a2 e7be df83 c23e bb36 79be
00000390: fe5e 0f3f 68e6 2f3f df15 0a3e ba24 083f
000003a0: 5bbd a0be 4c87 ac3e 869a 8ebe f154 d6be
000003b0: 69dd 7d3e 1914 b2be eb41 26be 71a3 b13e
000003c0: 9cfc b33d 600d 923e aeb2 bbbd 412e 9dbe
000003d0: d0f6 a93d 747d 673f 9994 eebe 0acb 1a3e
000003e0: 9b28 adbe 4c3a 043f c06c 01be 2e0b 203f
000003f0: e992 1dbe 5c54 7fbe 8bce 60be 736f 50be
-0.09456459 0.4244355 -0.30986062 -0.0978728 0.09987679 0.11454215 -0.09129899 0.58947533
-0.17812182 0.29819643 0.497744 0.4894222 0.30801865 -0.19327968 -0.47492364 0.42915478
0.5521863 0.28061718 0.4890393 -0.21272548 -0.15560322 0.47871664 0.6364101 0.43748257
-0.11279134 -0.13784595 -0.56504625 -0.33105803 0.3268387 -0.3309767 -0.33099648 -0.2950996
0.5287187 0.4352287 -0.525107 0.85237753 -0.45185137 0.7736372 0.8995725 0.32908392
-0.29162663 -0.1981899 -0.46519917 0.67745054 0.4308183 0.8494076 -0.35336614 0.48992738
-0.04870334 0.63060737 0.51822823 0.58899075 -0.2464633 0.8198064 -0.36305234 -0.1313409
0.5944785 -0.09249959 -0.4025176 -0.101722434 -0.6648 0.574652 -0.06662023 -0.025831174
-0.2715739 0.6422171 -0.3502828 0.31382987 -0.29598573 0.4571632 -0.6203156 0.15866071
-0.006440538 -0.15160719 -0.73205966 0.46296573 0.31920156 0.11782023 0.56146324 0.80983347
0.08301146 -0.0792479 -0.30520794 -0.33560255 0.49888906 -0.6655497 -0.1057441 -0.20061582
0.3445054 0.43633908 -0.2414999 -0.3656571 0.5005599 -0.03940025 0.3253319 0.5713572
-0.47084126 -0.296657 -0.4037598 -0.088120505 0.4617295 -0.3087079 0.5299018 -0.1767586
0.52680343 0.5160286 -0.08221759 -0.19553624 0.28737518 -0.24761486 -0.33986443 -0.10505589
0.42698866 -0.5737726 0.23211782 -0.008463128 -0.13617252 -0.46055958 -0.14708868 -0.20639399
0.15849921 0.386108 -0.67291594 -0.50503415 -0.48086762 0.73417664 -0.42913324 -0.5258667
-0.5839058 0.025711803 0.38304117 -0.26957858 0.42170203 0.60700953 -0.27282903 -0.80783975
-0.12728797 0.5443527 0.22540802 -0.12880513 0.21026224 0.3266195 -0.3323793 0.2550278
0.1450523 -0.26348606 0.2232691 -0.20547657 -0.22085972 0.379116 0.5006547 0.06865543
-0.36478904 0.35009313 0.41554987 -0.5557716 0.55109495 0.019450098 0.22042644 0.36493552
-0.39984572 0.15265581 -0.38762555 -0.15873131 0.5170033 0.3105096 0.50644433 0.5268313
-0.15094937 -0.5309986 0.17105556 -0.41734564 0.41354385 -0.23816659 0.3943242 -0.12825747
0.6651339 -0.28379893 -0.3420582 -0.28601328 -0.2861173 0.47875395 0.3074705 0.15297759
0.5817733 -0.06576702 0.5962781 0.4773203 -0.63148934 0.60555696 0.38309148 0.02819515
0.6609229 0.42354995 0.57053775 0.03375126 -0.54431576 -0.13120176 0.19925603 0.49709797
0.73115504 0.35171556 0.1373079 -0.572106 0.421954 -0.56092453 -0.028338 0.6805102
-0.34503382 0.16718255 0.49881455 -0.11530043 0.5539195 0.2886204 0.5662984 0.5929373
-0.29520634 -0.3240757 0.09742795 -0.013910583 0.5738007 0.37995446 0.20654786 0.08837179
-0.05006905 -0.45241168 0.37991235 -0.24337284 0.5600432 0.6871095 0.13484906 0.5318104
-0.31394467 0.33696973 -0.27852267 -0.4186168 0.24791493 -0.34780958 -0.16236083 0.34695008
0.08788416 0.2852583 -0.0916494 -0.3069935 0.08299029 0.904258 -0.46597746 0.15116516
-0.33820042 0.51651454 -0.12639141 0.6251706 -0.15388073 -0.24934524 -0.2195379 -0.20355015

l1.bias f4 [8]
00000000: 207a a93e 53a7 0f3f a772 923e 3f19 ba3e
00000010: 5e59 163f 6ec8 363f 0900 4e3f a998 b13e
0.33100986 0.5611469 0.28603098 0.36347386 0.58730114 0.7139958 0.80468804 0.34686783

l2.weight f4 [8, 8]
00000000: 3854 0bbf 6ea4 d23e 6529 6dbf e578 6e3e
00000010: 85bb 5a3f adee ec3e ebf7 9b3f b4c1 d1bd
00000020: 7832 97be 8284 203e a8d3 ccbd 9ea5 50be
00000030: f80a 97bd 001a 1bbd d321 a2be 2e60 abbe
00000040: 426f 06bf fd24 403f 3846 fc3d fe56 edbe
00000050: c427 4e3f c808 4e3f 9da2 b53f 918e 34bf
00000060: 2ae5 8dbe e55c a53f 96f4 893e c06b 823e
00000070: de89 2bbf 56a8 1d3f 1e19 053f 54a9 28bf
00000080: 93f8 ebbe 6a99 193f 9e62 acbe 6de6 753f
00000090: b482 37bf 3be9 4abe 1a2c 763f b993 2cbe
000000a0: 6d00 9c3f 68a6 fdbe 12fa abbd a374 12bf
000000b0: cfe6 68be 8743 393f 5b92 4e3f 1aa7 1f3f
000000c0: d56f d6be af8b 25bf c402 8c3f a967 7e3f
000000d0: 8d2f 543f 76dc 6dbf 4b71 443e 8bb7 9f3f
000000e0: 9229 a23f 3b33 933f 62e3 803f 2593 573f
000000f0: 818d 9cbf c967 f13d 7ec9 a5be 232e 283f
-0.5442538 0.41141075 -0.9264129 0.23288305 0.8544238 0.46275845 1.2185034 -0.10242024
-0.29530692 0.15675548 -0.10001308 -0.20375678 -0.07375139 -0.037866592 -0.3166643 -0.33471817
-0.52513516 0.7505644 0.12318081 -0.46355432 0.8052943 0.8048215 1.4190251 -0.7053004
-0.277139 1.2918974 0.26944417 0.25472832 -0.67007244 0.61584985 0.5199145 -0.65883374
-0.46088085 0.59999716 -0.3366899 0.96054727 -0.7168381 -0.19815533 0.96161044 -0.16853227
1.218763 -0.4954102 -0.083973065 -0.57209224 -0.22744296 0.72368664 0.8069207 0.6236435
-0.41882196 -0.64666265 1.0938344 0.9937692 0.82885057 -0.9291452 0.19183843 1.2477888
1.2668936 1.1500009 1.0069392 0.842089 -1.2230684 0.117873736 -0.3238029 0.656954

l2.bias f4 [8]
00000000: 23c2 af3e a556 26be e916 433f d717 bb3e
00000010: e685 1f3e 428b 6c3e 61a9 1a3f 9ba8 ce3c
0.34327802 -0.1624399 0.76206833 0.36541626 0.15578422 0.23099998 0.604147 0.025226882

l3.weight f4 [9, 8]
00000000: 46cc f63e 683a f8bd 8600 583f 0563 093f
00000010: 7d9e ad3e 9921 9dbe dfdd 42bf 5efa b9bf
00000020: 06c7 8ebf cc83 c8bd 8ad5 98bf ec35 9c3e
00000030: e2b0 d93e 2864 81bf 9e74 e0bc 1efd 073f
00000040: 119e 343d cda2 92be 34c0 773e 1d17 31bf
00000050: c3e2 01be 8001 423f bbb9 18bf 25a9 fdbe
00000060: 8950 2dbf 26ec 10be 19a1 19bf 5404 b0bf
00000070: c6aa a6bf e97a 293e 4650 973e 66a7 b23e
00000080: 5111 4bbf d8a5 60bd ea0c 80bf 731a bfbf
00000090: eac2 e5bd 319d 87bf 415a 633f a556 0f3d
000000a0: fc89 9bbf 14b1 ccbd 2b02 76bf 90fc 79bf
000000b0: 778f 40bf aeae 743f 3cff afbf c2b8 9c3e
000000c0: 4589 993e 6a62 6f3e b09c 21be 9577 9b3e
000000d0: 631d 583f 9a1e 46bf 85e7 29bf e75c 7a3d
000000e0: 0f7d f73e e224 463e 0cd2 3d3e 8bac 5dbf
000000f0: 0cb8 c6bd 8919 22bf 6d08 2d3f 0091 62bf
00000100: b092 7cbf aa4c 0b3e ca19 c83e 6d57 253f
00000110: d4c6 99bf 94c8 1cbe 68f6 4abf 985b c03e
0.48202723 -0.12120515 0.843758 0.53666717 0.3390998 -0.30689695 -0.761198 -1.4529531
-1.1154487 -0.09790763 -1.1940167 0.3050989 0.42517763 -1.010869 -0.027399357 0.531206
0.044096056 -0.28639832 0.24194413 -0.69175893 -0.12684159 0.7578354 -0.596584 -0.4954311
-0.6770101 -0.14152583 -0.6001144 -1.3751321 -1.3020866 0.16550793 0.2955343 0.3489334
-0.793233 -0.05484566 -1.0003941 -1.4929947 -0.112188175 -1.0594846 0.8880959 0.03499474
-1.2151484 -0.099947125 -0.9609706 -0.97651005 -0.7521891 0.9557904 -1.3749766 0.3060971
0.2998754 0.23377386 -0.15782428 0.3036467 0.8441984 -0.77390444 -0.66368896 0.061123755
0.483376 0.19350007 0.18537158 -0.86591405 -0.09703073 -0.63320214 0.6759098 -0.885025
-0.9866133 0.13603464 0.39082175 0.64586526 -1.2013803 -0.1531089 -0.79282236 0.3756988

l3.bias f4 [9]
00000000: def9 ec3e ddaf bbbe 8187 c53d cffd 413a
00000010: bb11 97be 9917 9a3d 1e56 02bf e4ba eabd
00000020: 576d 51be
0.46284384 -0.3665761 0.09644986 0.0007400186 -0.29505715 0.07524032 -0.50912654 -0.11461428
-0.20451866
