data.pth (torch, 8490 bytes, 6 tensors)

l1.weight f4 [8, 121]
000000 6b aa d4 3e 56 3f 9d 3d 7f 5e 16 3f ac 3e 80 be
       0.4153627 0.07678096 0.5873794 -0.25047815
000010 a5 e4 d0 be 69 da 06 3e 0a 39 8b 3e fb a7 b8 be
       -0.40799442 0.13169254 0.27191955 -0.3606566
000020 aa e8 a7 3e 3f 0c 80 3e f4 18 bf 3e 4f 6b f7 3e
       0.32794696 0.25009343 0.37323725 0.48324057
000030 32 6a ad 3e 71 8a 00 bf a0 9c ab 3e 1b 2e 6b 3e
       0.33870083 -0.50211245 0.33517933 0.22966807
000040 09 f9 3f 3e d2 fb d4 be db 0d e6 3d ee ec 9d 3e
       0.18747343 -0.41598374 0.112331115 0.30844826
000050 89 2d 7f be eb bc cc b9 72 dc 21 be 89 9c 9a be
       -0.24919714 -0.00039050667 -0.1580675 -0.30197552
000060 e4 0d 32 3f 3e 3d a7 bd 9e 65 46 3e 1d d4 b3 bd
       0.69552445 -0.08165978 0.19374701 -0.08780692
000070 e0 8c 4e 3e 6c b9 96 3e cf 51 a9 3e e4 fc 16 3c
       0.20170927 0.2943834 0.33070228 0.009215567
000080 5b 31 a8 3e 67 f8 9c bd b6 55 84 3d 7b c7 52 3e
       0.32850155 -0.076645665 0.064616606 0.20583908
000090 5c 64 b1 bd 7a 71 3d 3e 25 70 92 3e 80 24 5e 3d
       -0.0866172 0.18500319 0.28601184 0.054234028
0000a0 8c 7c 87 be 45 fb 77 be 19 d1 12 be ff a8 82 be
       -0.2646221 -0.24216945 -0.14337577 -0.2551956
0000b0 da ef 34 3f bf 66 a3 bd 14 33 bf be 31 20 7b be
       0.70678484 -0.07978582 -0.37343657 -0.24523999
0000c0 8d f9 b2 be 80 c0 a6 3e 5e 22 e7 3d d2 c5 a5 3d
       -0.34956017 0.3256874 0.11285852 0.08094372
0000d0 2e ae 22 be bf 43 38 3f 9d 7f be 3e e5 18 13 3e
       -0.15886757 0.7197837 0.37206736 0.14364965
0000e0 3b 89 04 3e 1a 38 2c be 11 b5 6c bd d9 32 8d 3e
       0.12942974 -0.16818276 -0.057789866 0.27577856
0000f0 92 21 ca bc 45 d0 24 3e e0 57 16 3e e0 fc 9c 3e
       -0.02467421 0.16095074 0.14681959 0.30661678
000100 fc 32 f3 3e 0e 60 d7 3e 74 d2 1c 3d 54 90 57 be
       0.47499835 0.4206547 0.03828664 -0.2105115
000110 84 59 cd 3c 40 5f 16 3e 9f 49 44 3e e4 3b ab be
       0.025067098 0.14684772 0.19168709 -0.3344413
000120 81 96 f8 bd 49 cb 80 3e 57 8e f6 3e 8d 79 5f 3e
       -0.12138081 0.25155094 0.48155472 0.21823712
000130 dc 1d 9e bd 7b db ce be 52 6f a6 3e 6d 2c e4 3e
       -0.07720539 -0.40401825 0.32506806 0.44565144
000140 17 09 d9 3e b0 b7 dc 3e 09 bc a1 3e f5 cf 02 3f
       0.42389748 0.43108892 0.31588772 0.5109857
000150 c7 6d fd 3e 20 be ca be 0d 12 91 3e df 1e 52 3e
       0.49497816 -0.3959818 0.28334084 0.20519589
000160 53 53 90 3e bb 03 13 be 56 eb b0 3d 6e ca f9 bc
       0.2818857 -0.14356892 0.08638637 -0.030492034
000170 6c ce 77 3e 2b 83 69 3d 81 74 00 3e 31 c4 82 be
       0.24199837 0.057009857 0.12544443 -0.25540307
000180 7c 5b ec 3e 0d a3 93 3e 57 64 59 3e cf 24 f9 3e
       0.46163547 0.28835335 0.21229683 0.48660895
000190 d9 7d 8c be d4 2a e5 bd 6e 56 f7 3e 42 3f b4 bd
       -0.27439764 -0.111898094 0.48308128 -0.08801128
0001a0 9d fd c7 3e 31 7d a0 be fc 90 e5 be fe cb e1 3e
       0.3906068 -0.31345513 -0.44837177 0.44100946
0001b0 6b 92 86 3f 22 70 79 3e 95 3c 46 be 91 02 cf 3e
       1.0513433 0.24359182 -0.19359048 0.40431646
0001c0 45 1c dc 3e 54 2b 70 3f 1a f2 e1 3e 4e 41 c4 3e
       0.42990318 0.93816113 0.4413002 0.38331074
0001d0 c6 5a 9c 3e d0 ec fb 3d 96 47 6d be e3 f3 0b be
       0.30538005 0.12301028 -0.23171839 -0.13667254
0001e0 60 5f 32 be af 4a 16 3f ac 2a 97 be 66 c2 d0 3e
       -0.17419195 0.5870771 -0.29524744 0.40773314
0001f0 db c6 c5 bd 97 3a 9e be 3c d0 07 bd e2 bd 0f bf
       -0.09657069 -0.30904076 -0.033157572 -0.56149113
000200 63 f2 cc be dc 4b 8b 3e 5f fc b4 3e 25 ce c9 3e
       -0.40028676 0.27206314 0.35348794 0.39415088
000210 36 54 b1 3e fa 36 a6 3e 1d ee e5 be 4f 56 6b 3e
       0.3463456 0.3246382 -0.4490823 0.22982143
000220 8e 61 c2 3e ae b2 58 3e 12 10 02 bf f0 f7 9e 3e
       0.37965053 0.21161911 -0.5080577 0.31048536
000230 21 65 a8 3e d5 94 36 be e5 1d 97 be 25 ac 51 be
       0.32889655 -0.17830212 -0.29514995 -0.20475824
000240 cc 22 15 bf 39 7e 22 3f 6b 0d c9 be 1c 27 7b 3e
       -0.5825622 0.6347385 -0.3926805 0.24526638
000250 e2 a5 1a 3e 25 bc 2e 3e 76 82 82 3e 1e 3c 97 3d
       0.15102342 0.17063959 0.2549016 0.07384513
000260 c0 7f a4 3d f6 82 a8 3e aa 84 24 3e e7 48 85 3e
       0.08032179 0.32912415 0.16066232 0.26032183
000270 14 c7 1e 3e b9 53 9b be 3f 8d 2e 3e fe 1e aa 3e
       0.1550563 -0.30337313 0.17046069 0.3322677
000280 cb 45 ac 3d ba 16 02 bf 6d c1 c7 be be 84 0d be
       0.084117495 -0.5081593 -0.3901476 -0.13820168
000290 85 1e 02 bf d4 9f df 3e 60 98 1d be 02 e3 ca be
       -0.5082782 0.43676627 -0.15390158 -0.39626318
0002a0 a1 18 02 bf 1d 3e 16 be ca 7e 8e 3e 81 f1 38 3e
       -0.5081883 -0.14672132 0.27831107 0.18060876
0002b0 fa 23 de 3d c5 d8 fb 3d 45 0c 32 3f cf b9 03 3f
       0.10846706 0.12297205 0.6954997 0.51455396
0002c0 60 a5 83 3e 87 2c c5 3d 45 cb 13 be c8 fd d3 be
       0.2571211 0.096276335 -0.1443301 -0.41404557
0002d0 cc 25 b8 3e 2f 6d 8b 3e 67 fe 27 3e 4a ae 84 3e
       0.35966337 0.27231738 0.1640564 0.25914222
0002e0 26 af f2 3e f3 ef 91 3e fb 57 d1 3e a5 18 a2 3e
       0.47399253 0.2850338 0.40887436 0.31659427
0002f0 a2 d3 90 3e 84 95 2c 3e 21 96 3b 3e 19 a3 55 3e
       0.28286463 0.1685391 0.18318988 0.20862998
000300 a5 2f b8 be 10 ad 20 be 7c e2 b5 3e f9 6b 26 3f
       -0.3597385 -0.15691018 0.35524356 0.65008503
000310 aa 04 75 3e 8a 64 10 3e f9 f7 c9 be 6b 02 07 3f
       0.2392756 0.14100853 -0.39447 0.52738065
000320 de bd fc 3d 33 fc 25 3d 63 df ea 3e ba 5e 67 be
       0.12340902 0.04052372 0.45873556 -0.22594729
000330 06 97 4a 3e 44 7c fc 3e e0 90 aa be c0 17 82 3e
       0.19784173 0.49313557 -0.33313656 0.25408745
000340 5e d4 f7 3e 2d fa 18 3e 62 f6 07 be 59 01 14 3e
       0.4840421 0.14939184 -0.13277581 0.14453639
000350 c6 d2 a1 3e 49 11 4e 3e 38 50 43 be 68 80 4e be
       0.3160612 0.20123781 -0.1907357 -0.2016617
000360 00 35 62 3e d4 6a 74 bd 4b dc e1 3e fe 1e 92 3e
       0.2209053 -0.05967219 0.44113383 0.2853927
000370 6c 64 d1 3e d2 79 a4 be da 6b 27 be 4e db 04 3f
       0.40896928 -0.32124192 -0.16349736 0.5189713
000380 40 19 36 be 0a 76 ac 3e d5 73 e4 be 03 16 02 bf
       -0.1778307 0.33683807 -0.44619623 -0.5081484
000390 87 49 92 3e 44 3b ed 3e 60 de 6f 3e ee 8e 53 be
       0.28571722 0.4633428 0.23424673 -0.20659992
0003a0 f0 68 4d 3e eb 5b 55 bd 41 e1 6c 3f 45 b8 c6 3e
       0.20059562 -0.052089613 0.9253121 0.38812461
0003b0 81 5f 13 3e 91 16 a5 3e 55 65 cf 3e ef 50 5c be
       0.143919 0.3224378 0.40506998 -0.21515249
0003c0 d3 64 6c be 32 85 3f be f0 9f e6 3e ce ae a1 3e
       -0.23085336 -0.18703154 0.45043898 0.31578678
0003d0 70 45 07 3f 0c d0 e8 be 7f 63 d0 be 6c 1d fe be
       0.5284033 -0.45471227 -0.4070091 -0.49631822
0003e0 6e 9f 0b 3f 91 56 94 3e ed 94 1a be ad d0 41 3e
       0.54540145 0.28972295 -0.15095873 0.1892726
0003f0 22 2f 23 3f 96 a8 08 3f b0 fd f1 3e 7a ba 07 bf
       0.63743794 0.5338224 0.4726386 -0.53018916

l1.bias f4 [8]
000000 b9 92 e5 3e 64 12 02 3f fe 8b 81 3f 23 94 03 3f
       0.44838503 0.5080931 1.0120847 0.51397914
000010 fe d6 5b 3f cc 8a e3 3e b3 ef 2f 3f ea 64 09 3f
       0.8587493 0.4444183 0.68725127 0.5366961

l2.weight f4 [8, 8]
000000 9f 2b 01 3e d3 4c 4c 3f 6a 2b 83 3f c1 7e 4b be
       0.12614296 0.79804724 1.0247624 -0.19872572
000010 9e d8 1c bf d6 f0 5c 3f 32 dd 34 bf 6f 3b e6 bd
       -0.6126803 0.86304986 -0.7065002 -0.11241805
000020 c4 7e e8 3d 7a 8e 0a be 56 9b b1 be d4 e1 8e be
       0.113523036 -0.13530913 -0.34688824 -0.27906668
000030 99 53 a5 be 70 36 80 bd c8 fb 65 3d e6 3a 9c be
       -0.32290342 -0.06260383 0.05614832 -0.30513686
000040 57 c7 ce 3e 14 18 30 be 14 5d 9a 3f 03 2a dd 3f
       0.4038646 -0.17196685 1.2059655 1.7278446
000050 9e a9 06 3e 92 a9 4f bf 17 6d ea bc 5a 7a 36 be
       0.13150641 -0.8111812 -0.028616471 -0.17820111
000060 65 61 49 3e 9c a8 49 be f0 51 ba 3f 8f d0 ee bd
       0.1966606 -0.19693226 1.4556255 -0.11660873
000070 36 4b d5 3f 06 79 61 3e b0 c2 08 bf 81 bc cb bf
       1.6663578 0.22018823 -0.5342207 -1.5916902
000080 17 70 84 bf d7 03 c5 be 73 33 0b 3f 10 d1 6b bf
       -1.0346707 -0.38479492 0.5437538 -0.9211588
000090 73 d1 63 3f 1b 68 b4 3f 5b 90 fb 3f 6c 2e 9f 3f
       0.8899147 1.409427 1.9653429 1.2436042
0000a0 8d 08 28 3e 6d 2a 23 3e 56 5e 9d 3f 2a 5a 4a be
       0.16409512 0.15934153 1.2294414 -0.19760957
0000b0 e7 65 9a bf 8f fc bd bc 09 22 e2 3e f9 13 3b 3f
       -1.2062348 -0.023191718 0.44166592 0.7307735
0000c0 a3 2e b4 3f d8 6b b3 3f ea 17 05 3f 72 ef 78 3f
       1.4076732 1.4017286 0.51989615 0.97240365
0000d0 67 f6 ba be 46 94 3e bd 78 18 37 bf 20 47 8d 3f
       -0.36516115 -0.046528123 -0.7152171 1.1037331
0000e0 9b 60 9d be 82 b9 ce bd e6 2c 1f 3e 4d 65 41 be
       -0.30737767 -0.100939766 0.15544471 -0.188863
0000f0 35 ef 17 3d 39 11 e5 bd 6a d5 d3 bd 6b 6d 8a 3d
       0.03709336 -0.111849256 -0.1034344 0.06759151

l2.bias f4 [8]
000000 d0 dd e9 be bc c8 c0 bd 86 0a 08 3f a0 eb 02 3f
       -0.45677042 -0.09413287 0.5314106 0.51140785
000010 3e 38 f1 3e e6 64 c8 be 5b 23 da 3e 32 0c bf be
       0.47113222 -0.3913948 0.426051 -0.37313992

l3.weight f4 [8, 8]
000000 87 ac cf be 03 31 97 3e 06 35 13 3f b0 32 78 3f
       -0.40561315 0.2952958 0.5750278 0.96952343
000010 f5 12 b8 bf 7a a0 b5 bf 81 31 3b be 95 7a 87 3e
       -1.4380785 -1.4189599 -0.18280603 0.2646071
000020 68 76 02 bf 68 31 a9 bd 44 5a b1 3d 0e 6d 89 3f
       -0.50961924 -0.082613766 0.08659795 1.0736406
000030 7a f8 ba 3e 63 9f a5 bf 94 ee d7 bf bf 39 a2 be
       0.36517698 -1.2939266 -1.6869683 -0.31684682
000040 3d 87 91 bf d1 c9 a3 3e b7 76 38 3f 24 f5 53 bf
       -1.1369396 0.3198991 0.72056144 -0.8279593
000050 ad 8f 15 3e 39 18 53 3f 1c 97 07 bf 2b 55 89 3e
       0.14605589 0.82458836 -0.5296495 0.2682279
000060 6e dd a0 bf 5c f4 85 3d 64 c4 a6 bf 14 0b aa bf
       -1.2567575 0.065407485 -1.3028684 -1.3284631
000070 c0 e8 99 3f 0a 9f 54 bf 16 b1 22 bf 39 5f 62 be
       1.2024155 -0.83055174 -0.6355146 -0.22106637
000080 35 f5 9f 3f 6d aa 2e be 1b 2a d3 be dc 16 96 3e
       1.2496706 -0.170572 -0.4124306 0.29314315
000090 dc d6 2f be 16 c4 39 be bf 00 0b bf b7 26 7f 3e
       -0.17171806 -0.18141207 -0.54298013 0.24917112
0000a0 86 63 0e c0 28 04 21 bd f9 b6 fe 3e cf 47 8c bf
       -2.2248244 -0.039310604 0.49748972 -1.0959414
0000b0 05 3c 2e bf 3a a3 1f c0 bc d3 82 3f 4b 85 84 be
       -0.6806033 -2.4943376 1.0220866 -0.25882944
0000c0 90 ad 6a 3f aa 15 7a 3e aa 43 4b be de 12 b1 bf
       0.91671085 0.24422327 -0.1985003 -1.3833883
0000d0 01 ab c9 bf 25 99 51 3f 48 d4 a8 3e a8 55 cc 3d
       -1.5755311 0.81874305 0.32974458 0.09977275
0000e0 c0 31 ec 3e 39 ec 97 3e f4 e3 ea bf ee a1 b7 bf
       0.46131706 0.2967241 -1.8350816 -1.4346292
0000f0 ea 12 87 3e fe 5e 87 3f 25 8a ad bd 0e 2e 99 be
       0.26381618 1.0575864 -0.084736146 -0.2991795

l3.bias f4 [8]
000000 99 7c 08 3d 8e 86 35 3e 57 1c 6c 3d 9f b3 33 3f
       0.03332195 0.1772711 0.057644214 0.70195955
000010 82 db 24 bf aa a6 a5 3e f5 cf e9 be 15 63 3c be
       -0.6439744 0.32353717 -0.4566647 -0.18397172
