data.pth (torch, 6570 bytes, 6 tensors)

l1.weight f4 [8, 75]
0.30289578 0.47693756 -0.3268374 0.2365383 0.7286848 -0.5039544 0.2945531 0.012340377
-0.088560805 0.34890497 0.45586827 0.27679425 0.25244802 -0.075047396 -0.34341198 0.58438665
0.5573553 0.5394137 -0.23575166 -0.40454605 -0.16182609 0.38868693 0.5562729 0.40503702
0.23708875 -0.139526 0.3448061 -0.21450683 0.13902873 -0.21448222 -0.21445136 0.4153321
0.6012287 0.1441032 0.25827104 -0.053757466 0.42349187 0.39331448 -0.67563295 0.5647628
0.32253575 -0.37066647 0.20827365 0.45693368 0.5547557 -0.07698732 -0.42948514 0.54101205
-0.063327454 0.35768795 -0.5363398 0.38573337 0.013690549 -0.71556574 0.7002958 -0.27577844
-0.058473367 0.3577339 -0.5628615 0.09967604 0.323673 -0.19719529 0.25713652 0.35873464
0.39369908 0.65408826 -0.44105458 0.4888746 -0.12617835 0.14959745 0.2901393 0.26088437
0.5761735 -0.32709667 -0.31178784 0.44467875 -0.2737369 -0.24658085 -0.08840732 0.5549423
-0.43840387 -0.08150645 0.04721062 0.0031560212 0.364492 -0.25202477 -0.22386935 -0.15137886
-0.1355288 0.2389971 -0.07584758 0.078841686 0.35223585 -0.1760862 -0.053854275 -0.2514912
-0.32613835 -0.09734841 -0.2044632 -0.043848965 -0.17582378 0.14801474 -0.2964546 -0.21303113
-0.24958675 -0.24715033 0.033223297 -0.26972508 0.12195743 0.023352113 -0.15550347 0.35252205
0.3718362 -0.21154693 0.4722401 0.015939824 -0.059920877 0.02476273 0.00071094924 0.08720389
0.3512349 -0.25306216 0.05582955 0.053864807 -0.2154004 0.7288118 -0.10113464 -0.03852702
-0.27544183 0.121325344 -0.11146762 0.060505494 0.51735026 -0.21823125 -0.0040933564 -0.59353614
-0.11420236 0.54622823 0.3705684 0.039908018 0.37387604 -0.28750628 -0.40018997 -0.19924538
-0.22462326 0.086720385 0.266768 0.274533 -0.20033912 -0.08427833 -0.38783103 0.14963812
0.41910627 -0.47143224 -0.79465294 0.40272886 0.3896976 -0.46411803 0.3536688 -0.45192796
0.55410594 -0.5445912 0.4503637 0.2672872 0.2685217 0.48337913 -0.30370808 -0.2880545
-0.31181523 0.5549021 0.077519454 0.42498115 0.31637377 0.30404028 0.39100182 0.2606304
0.4510557 0.42498803 0.4131257 0.4367369 0.41043183 0.36401948 -0.10837042 0.123594426
0.5363051 -0.4766865 0.3431484 0.24445231 -0.37792057 -0.25409395 0.4726175 0.19595942
0.5796269 -0.18249397 0.41899046 0.13160117 0.6154294 0.33365083 0.30869952 0.36577183
-0.68388927 0.46925086 0.4463929 0.48098695 0.4115299 0.25939906 -0.3812945 -0.40819824
0.5075846 0.37476024 0.89385635 -0.12733665 -0.34440297 -0.0043907757 0.36783236 0.41430756
0.26079345 0.44848675 0.70587367 0.73663676 0.4806491 0.045758143 0.4526069 0.2635071
-0.11532183 0.056765188 0.3893395 0.38074857 0.2853964 -0.0142843425 0.30563897 0.34906846
-0.19575551 0.16701056 0.2569524 0.26541185 0.46451885 0.15334561 0.43050143 -0.021452753
-0.1870005 -0.4477974 0.1054058 0.097908266 -0.21640657 0.21068183 0.107423656 -0.39678243
0.14101206 0.26558983 0.45015547 0.35859513 0.6094054 0.13459875 0.5959102 0.64078814
00000000: 2815 9b3e 2931 f43e 3b57 a7be 1937 723e
00000010: 168b 3a3f 2803 01bf aacf 963e 4b2f 4a3c
00000020: 5e5f b5bd aca3 b23e 9167 e93e fab7 8d3e
00000030: de40 813e 73b2 99bd b2d3 afbe 5d9a 153f
00000040: d6ae 0e3f 0417 0a3f e268 71be a920 cfbe
00000050: bdb5 25be f901 c73e e767 0e3f 0361 cf3e
00000060: 65c7 723e e7df 0ebe 6d8a b03e aea7 5bbe
00000070: 8c5d 0e3e 3aa1 5bbe 2399 5bbe 69a6 d43e
00000080: 20ea 193f ca8f 133e 1a3c 843e ca30 5cbd
00000090: edd3 d83e 8460 c93e 48f6 2cbf 4b94 103f
000000a0: 6823 a53e ffc7 bdbe b045 553e 36f3 e93e
000000b0: 7804 0e3f 87ab 9dbd 7ae5 dbbe c47f 0a3f
000000c0: d3b1 81bd e022 b73e 914d 09bf d87e c53e
000000d0: 534e 603c 512f 37bf 9646 333f d532 8dbe
000000e0: c581 6fbd e628 b73e b117 10bf f422 cc3d
000000f0: 78b8 a53e 90ed 49be 66a7 833e 11ac b73e
00000100: ed92 c93e 5472 273f e8d1 e1be c64d fa3e
00000110: e634 01be 1330 193e 238d 943e a392 853e
00000120: 1b80 133f 3779 a7be a8a2 9fbe efac e33e
00000130: 3e27 8cbe b17f 7cbe e60e b5bd b310 0e3f
00000140: 7976 e0be dbec a6bd ec5f 413d 40d5 4e3b
00000150: b29e ba3e 6409 81be 023e 65be 0f03 1bbe
00000160: 10c8 0abe a8bb 743e fa55 9bbd c077 a13d
00000170: 4258 b43e f14f 34be 4d96 5cbd 74c3 80be
00000180: 9bfb a6be 9a5e c7bd cd5e 51be f99a 33bd
00000190: 260b 34be 2d91 173e e6c8 97be d524 5abe
000001a0: ab93 7fbe fa14 7dbe 2715 083d 6819 8abe
000001b0: d1c4 f93d ee4c bf3c 4d3c 1fbe c57d b43e
000001c0: 5061 be3e c29f 58be 74c9 f13e 3c94 823c
000001d0: 986f 75bd 35db ca3c ff5e 3a3a f497 b23d
000001e0: 10d5 b33e 5d91 81be 87ad 643d 58a1 5c3d
000001f0: ec91 5cbe 6993 3a3f ae1f cfbd 82ce 1dbd
00000200: b606 8dbe 6c79 f83d 2349 e4bd 9cd4 773d
00000210: 1171 043f 0378 5fbe 9021 86bb fcf1 17bf
00000220: ede2 e9bd 9dd5 0b3f 24bb bd3e 9776 233d
00000230: ae6c bf3e 0634 93be b3e5 ccbe fb06 4cbe
00000240: a403 66be 759a b13d d195 883e 978f 8c3e
00000250: b325 4dbe 1e9a acbd ca91 c6be bc3a 193e
00000260: 1995 d63e 915f f1be 606e 4bbf 7a32 ce3e
00000270: 7286 c73e e1a0 edbe 1414 b53e 1a63 e7be
00000280: e3d9 0d3f 546a 0bbf 1296 e63e ded9 883e
00000290: ad7b 893e 787d f73e a07f 9bbe e17b 93be
000002a0: 3fa6 9fbe 100e 0e3f 85c2 9e3d 2197 d93e
000002b0: befb a13e 2bab 9b3e 6431 c83e 5971 853e
000002c0: c6f0 e63e 0898 d93e 3685 d33e fb9b df3e
000002d0: 1f24 d23e c360 ba3e 50f1 ddbd 131f fd3d
000002e0: 4b4b 093f 4110 f4be 26b1 af3e b551 7a3e
000002f0: ce7e c1be 9a18 82be ecfa f13e 96a9 483e
00000300: 6e62 143f b3df 3abe eb85 d63e 75c2 063e
00000310: c88c 1d3f 48d4 aa3e dd0d 9e3e 7246 bb3e
00000320: 5e13 2fbf a641 f03e 9c8d e43e ec43 f63e
00000330: 0cb4 d23e f4cf 843e 0839 c3be 5cff d0be
00000340: 10f1 013f 93e0 bf3e c5d3 643f 8a64 02be
00000350: 9655 b0be 7fe0 8fbb 8654 bc3e 1f20 d43e
00000360: b886 853e 0ea0 e53e 23b4 343f 3a94 3c3f
00000370: a417 f63e e46c 3b3d 17bc e73e 67ea 863e
00000380: da2d ecbd 9d82 683d 8257 c73e 7af1 c23e
00000390: 7a1f 923e e008 6abc b67c 9c3e 1ab9 b23e
000003a0: 2274 48be d104 2b3e 448f 833e 10e4 873e
000003b0: 6ad5 ed3e a206 1d3e af6a dc3e afbd afbc
000003c0: 0f7d 3fbe b345 e5be ffde d73d 2184 c83d
000003d0: af99 5dbe fabc 573e ef00 dc3d 1127 cbbe
000003e0: 7765 103e 64fb 873e c77a e63e c899 b73e
000003f0: fe01 1c3f 41d4 093e 928d 183f b10a 243f

l1.bias f4 [8]
0.21446411 0.3869058 0.5286459 0.8300708 0.3727543 0.5752777 0.1700159 0.7183645
00000000: 7b9c 5b3e 8418 c63e 5655 073f 857f 543f
00000010: a7d9 be3e 6645 133f a618 2e3e bce6 373f

l2.weight f4 [8, 8]
-0.40895346 -0.67107975 1.2390182 0.823642 0.7268975 0.21628557 -1.100027 0.585235
1.1970304 0.18918683 0.9151915 0.1339133 0.8411002 -0.851011 0.4779331 -0.084662996
-0.75162876 0.47103304 -0.28858933 1.1697776 0.061269656 1.0180411 0.8506299 1.2149043
0.57986313 -0.2554643 0.9262476 -0.31601435 0.24405962 0.35730103 -0.18943447 -1.024795
0.111926295 0.96383196 0.10838539 0.9230948 -1.0293331 1.2545333 -0.06887443 0.3378492
0.872237 1.0441021 -0.2657102 0.25917283 -0.4592687 0.31456405 0.811898 0.48630473
0.9817668 0.81614566 -0.31207645 0.6991192 0.47782433 -0.74692494 -0.019521559 0.56933284
0.23118104 -0.5046186 1.0290396 -0.584607 0.8983842 0.8608809 0.9677229 -1.0557112
00000000: 5962 d1be e2cb 2bbf 2698 9e3f 34da 523f
00000010: f415 3a3f f779 5d3e afcd 8cbf f6d1 153f
00000020: 4b38 993f 31ba 413e fd49 6a3f 9120 093e
00000030: 5852 573f dbdb 59bf a6b3 f43e cb63 adbd
00000040: be6a 40bf 3e2b f13e fbc1 93be 46bb 953f
00000050: e4f5 7a3d 2c4f 823f e2c2 593f fc81 9b3f
00000060: e971 143f 37cc 82be 901e 6d3f a2cc a1be
00000070: c4ea 793e 29f0 b63e 1cfb 41be 7c2c 83bf
00000080: 9d39 e53d b1bd 763f 29f9 dd3d f14f 6c3f
00000090: 30c1 83bf 8c94 a03f 0a0e 8dbd 92fa ac3e
000000a0: ed4a 5f3f 23a5 853f 2b0b 88be 4db2 843e
000000b0: 4425 ebbe 8a0e a13e 8cd8 4f3f effc f83e
000000c0: 1255 7b3f ecee 503f 7cc8 9fbe 7af9 323f
000000d0: 64a5 f43e 7936 3fbf adeb 9fbc ccbf 113f
000000e0: b9ba 6c3e af2e 01bf 92b7 833f cea8 15bf
000000f0: 82fc 653f b162 5c3f b0bc 773f 8b21 87bf

l2.bias f4 [8]
0.5786756 -0.19248965 0.6776881 -0.1711843 0.1543984 -0.41434583 0.32997128 0.27312085
00000000: 1624 143f 021c 45be f87c 2d3f f04a 2fbe
00000010: 9d1a 1e3e 2325 d4be fff1 a83e 7fd6 8b3e

l3.weight f4 [9, 8]
0.7581609 -1.1750495 0.715521 -1.400135 0.7116809 -0.5578669 -0.26737747 -1.0288794
-1.2795064 0.19145414 0.33643287 -1.5641246 -0.17840503 0.41917998 0.33682376 -0.37388533
0.68098205 0.24901102 -1.3407001 0.61227286 -0.3242453 -1.0362983 0.12589882 0.16960835
-1.0394845 0.46388984 -1.000214 0.5454521 -1.2080381 0.11837941 0.23653653 0.34477425
-0.18287091 0.1295738 -0.28854436 0.30240977 0.57749104 0.37041157 -0.7667123 0.12595455
-1.3448124 -0.57985115 0.5732119 -0.38665596 0.14745454 0.048136797 -1.442703 0.7207433
0.18662933 -0.05815184 0.17970009 0.46443158 -1.1885213 -1.0549651 -1.1798631 0.7002223
0.8674105 -0.03388466 0.5188913 -1.2296067 -1.3974439 -0.9851732 0.0015058991 -0.45197836
-1.2810305 -0.7506627 0.5803745 -0.5487881 0.8400373 0.54082507 0.0008627205 -1.3134755
00000000: d516 423f 0668 96bf 622c 373f a037 b3bf
00000010: b830 363f 5dd0 0ebf b3e5 88be 52b2 83bf
00000020: dec6 a3bf 8e0c 443e ee40 ac3e 3c35 c8bf
00000030: cfaf 36be c29e d63e 2a74 ac3e e66d bfbe
00000040: d754 2e3f bffc 7e3e 109c abbf eabd 1c3f
00000050: 7b03 a6be 6ca5 84bf 9feb 003e d0ad 2d3e
00000060: d40d 85bf f882 ed3e 0307 80bf c0a2 0b3f
00000070: fea0 9abf e770 f23d a236 723e 4086 b03e
00000080: 8342 3bbe ffae 043e 16bc 93be 74d5 9a3e
00000090: 74d6 133f 96a6 bd3e 4247 44bf 3bfa 003e
000000a0: d022 acbf 2071 14bf 04be 123f c5f7 c5be
000000b0: 53fe 163e 172b 453d 7eaa b8bf a282 383f
000000c0: c21b 3f3e a030 6ebd 4d03 383e fac9 ed3e
000000d0: 7721 98bf 1909 87bf c105 97bf c541 333f
000000e0: 9d0e 5e3f a4ca 0abd 0fd6 043f c163 9dbf
000000f0: 71df b2bf 5034 7cbf 9761 c53a b569 e7be
00000100: cff8 a3bf 6e2b 40bf 6c93 143f 607d 0cbf
00000110: af0c 573f 8373 0a3f 3128 623a f71f a8bf

l3.bias f4 [9]
0.41213173 0.3006438 -0.1527145 0.23723276 -0.4611571 -0.047476072 0.23758923 -0.16848844
-0.14118516
00000000: ee02 d33e fced 993e 3161 1cbe 25ed 723e
00000010: c91c ecbe 4576 42bd 974a 733e 3c88 2cbe
00000020: d892 10be
